Step4_Predictor/utils/guide.pth (torch, 106027 bytes, 14 tensors)

weight f4 [100, 16]
000000 00 00 00 00 00 00 80 3f 00 00 00 00 00 00 80 3f
       0.0 1.0 0.0 1.0
000010 00 00 00 00 00 00 80 3f 00 00 00 00 00 00 80 3f
       0.0 1.0 0.0 1.0
000020 00 00 00 00 00 00 80 3f 00 00 00 00 00 00 80 3f
       0.0 1.0 0.0 1.0
000030 00 00 00 00 00 00 80 3f 00 00 00 00 00 00 80 3f
       0.0 1.0 0.0 1.0
000040 a4 6a 57 3f 41 51 0a 3f 3e 39 9f 3e 6b 4e 73 3f
       0.84147096 0.54030234 0.3109836 0.9504153
000050 76 75 cc 3d 98 b8 7e 3f 5b 81 01 3d 3c df 7f 3f
       0.099833414 0.9950042 0.031617504 0.99950004
000060 57 d6 23 3c b9 fc 7f 3f 1c 3e 4f 3b ac ff 7f 3f
       0.009999833 0.99995 0.0031622713 0.999995
000070 6d 12 83 3a f8 ff 7f 3f 61 cb a5 39 ff ff 7f 3f
       0.0009999998 0.9999995 0.00031622782 0.99999994
000080 b7 c7 68 3f 33 11 d5 be 1b 54 17 3f ec 7b 4e 3f
       0.9092974 -0.41614684 0.5911271 0.8065784
000090 f8 6f 4b 3e a5 e5 7a 3f c8 70 81 3d f9 7c 7f 3f
       0.19866931 0.9800666 0.063203394 0.9980007
0000a0 3e d4 a3 3c e5 f2 7f 3f d8 3d cf 3b b1 fe 7f 3f
       0.019998666 0.9998 0.006324511 0.99998003
0000b0 68 12 03 3b df ff 7f 3f 60 cb 25 3a fd ff 7f 3f
       0.0019999985 0.99999803 0.0006324556 0.9999998
0000c0 c3 81 10 3e 26 70 7d bf c2 09 50 3f 58 2f 15 3f
       0.14112 -0.9899925 0.8126489 0.58275366
0000d0 6c 4e 97 3e ef 90 74 3f c0 ff c1 3d 4f d9 7e 3f
       0.2955202 0.9553365 0.094726086 0.99550337
0000e0 1f b9 f5 3c 83 e2 7f 3f 0d 6e 1b 3c 0d fd 7f 3f
       0.0299955 0.99955004 0.009486687 0.999955
0000f0 92 9b 44 3b b5 ff 7f 3f 10 b1 78 3a f9 ff 7f 3f
       0.0029999954 0.9999955 0.00094868336 0.9999996
000100 cf bd 41 bf 30 55 27 bf de 1d 74 3f b1 2e 9a 3e
       -0.7568025 -0.6536436 0.95358074 0.30113748
000110 d7 61 c7 3e a7 ca 6b 3f 88 2e 01 3e 69 f4 7d 3f
       0.38941833 0.921061 0.12615407 0.99201065
000120 db cb 23 3d 94 cb 7f 3f c9 3c 4f 3c c2 fa 7f 3f
       0.039989334 0.9992001 0.01264877 0.99992
000130 57 12 83 3b 7a ff 7f 3f 5e cb a5 3a f3 ff 7f 3f
       0.003999989 0.999992 0.0012649109 0.9999992
000140 10 7c 75 bf 2c 3c 91 3e 7f fc 7f 3f e9 72 29 bc
       -0.9589243 0.2836622 0.99994653 -0.010342338
000150 43 77 f5 3e 40 a9 60 3f 1d 3c 21 3e 81 ce 7c 3f
       0.47942552 0.87758255 0.15745588 0.987526
000160 f4 b6 4c 3d 19 ae 7f 3f 7e 85 81 3c cf f7 7f 3f
       0.049979165 0.99875027 0.015810724 0.999875
000170 dd d6 a3 3b 2e ff 7f 3f 33 3e cf 3a eb ff 7f 3f
       0.004999979 0.9999875 0.0015811383 0.99999875
000180 8c 0f 8f be b8 cd 75 3f 4e 78 72 3f 6d 3f a4 be
       -0.2794155 0.96017027 0.9471482 -0.3207964
000190 68 8c 10 3f 32 49 53 3f 6e 20 41 3e e3 67 7b 3f
       0.5646424 0.8253356 0.18860027 0.98205394
0001a0 d1 9c 75 3d 12 8a 7f 3f 43 6c 9b 3c 34 f4 7f 3f
       0.059964005 0.99820054 0.018972522 0.99982
0001b0 58 9b c4 3b d2 fe 7f 3f 08 b1 f8 3a e2 ff 7f 3f
       0.0059999637 0.999982 0.0018973658 0.9999982
0001c0 46 30 28 3f bd ff 40 3f 6e e8 4c 3f bc 74 19 bf
       0.6569866 0.75390226 0.8004216 -0.5994375
0001d0 72 eb 24 3f b3 cc 43 3f 50 d3 60 3e ea c0 79 3f
       0.6442176 0.7648422 0.2195561 0.9755999
0001e0 32 3e 8f 3d 81 5f 7f 3f a2 52 b5 3c f2 ef 7f 3f
       0.06994285 0.997551 0.022134129 0.999755
0001f0 c5 5f e5 3b 65 fe 7f 3f ed 11 11 3b d7 ff 7f 3f
       0.006999942 0.9999755 0.0022135929 0.99999756
000200 95 46 7d 3f f6 fd 14 be 7e 06 13 3f e5 91 51 bf
       0.98935825 -0.14550003 0.5743178 -0.8186324
000210 a5 a4 37 3f 5f 5b 32 3f 51 26 80 3e 02 da 77 3f
       0.717356 0.6967067 0.25029233 0.9681703
000220 50 aa a3 3d 65 2e 7f 3f 8a 38 cf 3c 08 eb 7f 3f
       0.07991469 0.9968017 0.025295515 0.99968004
000230 12 12 03 3c e7 fd 7f 3f 55 cb 25 3b ca ff 7f 3f
       0.007999914 0.999968 0.0025298197 0.9999968
000240 32 01 d3 3e d5 3f 69 bf ee 1f 95 3e a2 e6 74 bf
       0.4121185 -0.91113025 0.29125923 -0.9566442
000250 1c 88 48 3f d5 21 1f 3f 2d c2 8f 3e a9 b3 75 3f
       0.78332686 0.62161 0.28077832 0.95977265
000260 3e 12 b8 3d c2 f6 7e 3f ea 1d e9 3c 76 e5 7f 3f
       0.089878544 0.9959527 0.028456647 0.99959505
000270 3a 74 13 3c 59 fd 7f 3f bc 84 3a 3b bc ff 7f 3f
       0.008999879 0.9999595 0.0028460464 0.99999595
000280 f8 44 0b bf 64 cd 56 bf 97 70 a9 bc fb f1 7f bf
       -0.5440211 -0.8390715 -0.02068357 -0.9997861
000290 a4 6a 57 3f 41 51 0a 3f 3d 39 9f 3e 6b 4e 73 3f
       0.84147096 0.54030234 0.31098357 0.9504153
0002a0 76 75 cc 3d 98 b8 7e 3f 59 81 01 3d 3c df 7f 3f
       0.099833414 0.9950042 0.031617496 0.99950004
0002b0 57 d6 23 3c b9 fc 7f 3f 22 3e 4f 3b ac ff 7f 3f
       0.009999833 0.99995 0.0031622727 0.999995
0002c0 5c ff 7f bf 72 05 91 3b 1f 41 a9 be 8d 9b 71 bf
       -0.9999902 0.004425698 -0.33057496 -0.94377977
0002d0 2a 26 64 3f c3 3d e8 3e 8b 87 ae 3e e4 aa 70 3f
       0.89120734 0.4535962 0.34087786 0.9401076
0002e0 72 d3 e0 3d e8 73 7e 3f 68 73 0e 3d 5b d8 7f 3f
       0.1097783 0.9939561 0.03477803 0.9993951
0002f0 69 38 34 3c 09 fc 7f 3f 87 f7 63 3b 9b ff 7f 3f
       0.010999777 0.9999395 0.003478499 0.999994
000300 d8 5c 09 bf d0 06 58 3f 24 91 1b bf 56 4f 4b bf
       -0.53657293 0.84385395 -0.6076834 -0.7941793
000310 1d 9a 6e 3f f7 86 b9 3e 2c a9 bd 3e c3 c9 6d 3f
       0.9320391 0.36235783 0.3704313 0.9288599
000320 ac 2b f5 3d b5 28 7e 3f 19 65 1b 3d d2 d0 7f 3f
       0.119712204 0.99280864 0.03793821 0.9992801
000330 70 9a 44 3c 48 fb 7f 3f eb b0 78 3b 87 ff 7f 3f
       0.011999711 0.999928 0.0037947248 0.9999928
000340 22 20 d7 3e 6f 4e 68 3f 4c 14 53 bf 9d d9 10 bf
       0.42016703 0.9074468 -0.82452846 -0.5658205
000350 c0 ab 76 3f 9d f5 88 3e 3f 9a cc 3e c3 ab 6a 3f
       0.9635582 0.26749888 0.3996143 0.9166834
000360 d0 be 04 3e 00 d7 7d 3f 65 56 28 3d a1 c8 7f 3f
       0.12963414 0.9915619 0.041098017 0.9991551
000370 6a fc 54 3c 76 fa 7f 3f 26 b5 86 3b 72 ff 7f 3f
       0.012999633 0.9999155 0.00411095 0.99999154
000380 72 98 7d 3f d7 04 0c 3e b3 a8 75 bf 0a 0d 90 be
       0.9906074 0.13673721 -0.9596054 -0.28134948
000390 6f 46 7c 3f e7 0b 2e 3e f4 56 db 3e b1 51 67 3f
       0.98544973 0.16996728 0.42839777 0.90359026
0003a0 64 e4 0e 3e cc 7e 7d 3f 43 47 35 3d c9 bf 7f 3f
       0.13954312 0.990216 0.044257414 0.99902016
0003b0 55 5e 65 3c 94 f9 7f 3f d6 11 91 3b 5c ff 7f 3f
       0.013999541 0.999902 0.004427175 0.9999902
0003c0 44 79 26 3f e8 7a 42 bf 75 e0 7f bf 96 22 fe 3c
       0.65028787 -0.7596879 -0.9995187 0.031022351
0003d0 d5 5b 7f 3f ba de 90 3d 83 db e9 3e 68 bc 63 3f
       0.997495 0.07073732 0.45675287 0.8895936
0003e0 4f 06 19 3e 1a 20 7d 3f aa 37 42 3d 49 b6 7f 3f
       0.14943813 0.9887711 0.047416367 0.9988752
0003f0 32 c0 75 3c a1 f8 7f 3f 85 6e 9b 3b 43 ff 7f 3f
       0.014999436 0.9998875 0.0047433996 0.99998873

weight f4 [64, 16]
000000 50 96 51 3d 44 58 de 3d 9c 8b 2a 3e 04 5f 3c 3e
       0.05116874 0.10856679 0.16654819 0.1839562
000010 68 db 48 3e 84 5f e2 3d f4 68 53 3e 9a 3a 37 3e
       0.19614947 0.110533744 0.20645505 0.17893448
000020 e4 90 3b bd 40 15 ca 3c 43 e5 12 be 47 04 53 be
       -0.045792475 0.024668336 -0.14345269 -0.206071
000030 46 fe 84 3e 42 d4 50 be 90 51 2f be 59 71 87 be
       0.25975245 -0.2039347 -0.17120957 -0.26453665
000040 5e d0 56 be f8 fc 7e 3d 82 9a 06 3e 2a c0 69 be
       -0.20977923 0.06225297 0.13144878 -0.22827211
000050 50 87 b2 3c 04 08 4f be 88 61 54 3d f6 80 27 3e
       0.021793038 -0.20217901 0.051850826 0.16357788
000060 64 31 d7 bd e8 3b f6 bd 16 a9 36 3e 23 bb 34 be
       -0.105074674 -0.12023145 0.17837939 -0.17649512
000070 04 41 65 bd 64 7c 69 be 86 82 44 3e 68 e2 b2 3d
       -0.055970207 -0.22801358 0.19190416 0.0873459
000080 6e d0 de bd e4 90 47 3e 5e c3 84 3e bc ef e4 3d
       -0.108795986 0.19488865 0.25930303 0.11178538
000090 98 09 46 be 38 99 74 bd ae 94 61 3e fa cb 4b 3e
       -0.19339597 -0.059716433 0.22029373 0.1990203
0000a0 38 64 b8 bd 4e 92 39 3e 12 73 37 be a8 73 96 3d
       -0.0900349 0.18122217 -0.1791499 0.073462784
0000b0 44 34 77 3e 60 98 4b 3d 2c d6 5e be 20 38 a8 3d
       0.24141032 0.049705863 -0.21761388 0.0821383
0000c0 62 4a 1c 3e 0a 09 43 3e 3f 78 38 be d8 5b 49 bd
       0.1526275 0.19046417 -0.1801462 -0.049159855
0000d0 a0 86 69 bc 7c 1e 44 bd 5c f2 78 bd 32 18 ca bd
       -0.0142532885 -0.047880635 -0.060778007 -0.09867896
0000e0 08 28 c1 3d 3e 43 05 3e dc df 59 bd ee 5e 5c 3e
       0.094314635 0.13013932 -0.053192005 0.21520588
0000f0 00 e7 c0 ba e0 b9 88 3d 2c 5e 8c 3d 02 f8 be bd
       -0.0014717281 0.06676078 0.06853899 -0.093246475
000100 e0 f7 44 bc 80 8e fa bc 88 1b d4 3d 85 a9 16 be
       -0.012021989 -0.030585527 0.10356814 -0.14713104
000110 3e bb 00 be 59 58 87 be 0c fd f3 bd 24 c6 b2 3d
       -0.12571427 -0.2643459 -0.11913499 0.087291986
000120 76 ab 62 3e 21 3c 8a be ae c5 c9 bd 06 6f 30 3e
       0.2213572 -0.26999 -0.098521575 0.17229852
000130 da a6 17 be 1a 58 3d 3e 80 14 35 3c 34 d5 83 be
       -0.14809743 0.1849064 0.011052251 -0.257486
000140 08 ac 3d 3d 72 17 28 be e0 03 5a 3d 91 45 7b be
       0.04630664 -0.16415194 0.05322635 -0.24538256
000150 ae c1 83 3e 8e 4d ef bd 8a 5a 33 3e 49 71 30 be
       0.25733703 -0.11684714 0.17515007 -0.17230715
000160 46 08 6b be f4 a9 dc 3d c6 98 28 3e 00 6e 21 bb
       -0.22952375 0.107746035 0.16464528 -0.0024632215
000170 22 2a 6d be e6 d8 99 bd 78 55 42 be 28 e0 9e 3d
       -0.23160604 -0.07512073 -0.18977916 0.07757598
000180 98 a2 35 3d 38 e1 42 3e b0 f7 8b 3e 0f a3 01 be
       0.044344515 0.19031227 0.27337408 -0.12659858
000190 ce 90 5d 3e fa d5 42 3e e0 6d 2c 3d 76 79 89 be
       0.2163727 0.19026938 0.042096972 -0.2685048
0001a0 9f 80 42 be 44 63 f4 3d 78 62 50 3e 48 df 15 3e
       -0.18994378 0.11932996 0.20350063 0.14635956
0001b0 c0 73 d3 3c 9c 8b 2a be 53 6b 76 be 2a 42 20 be
       0.02581203 -0.16654819 -0.24064378 -0.1565024
0001c0 80 bc 05 3b 68 db 13 3d 08 c7 56 3e e0 42 4a be
       0.0020406544 0.036097914 0.20974362 -0.19752073
0001d0 de ab 12 3e d8 8e 6d 3e 63 78 7d be 15 6c 15 be
       0.14323375 0.23199022 -0.24752955 -0.14592011
0001e0 fe 86 9c bd 88 38 57 3d a4 32 7b 3e b0 ec 64 3d
       -0.07642935 0.052544147 0.24531037 0.055889785
0001f0 14 bf 3d 3e 48 e8 62 3e a2 27 5c 3e 90 c3 7f be
       0.18529922 0.22158921 0.21499494 -0.24976945
000200 78 37 37 be c0 af 92 bc 00 fc 82 ba d0 20 bd 3c
       -0.17892253 -0.01790607 -0.0009993315 0.023086935
000210 f8 96 6b 3e 88 ff 7d 3e 6a 19 a4 bd d0 a4 01 be
       0.23006809 0.24804509 -0.0801266 -0.12660527
000220 90 b6 b5 3c b0 ee 0d 3d f8 f2 2c 3e e8 42 c7 3d
       0.02218178 0.03465146 0.1688956 0.09729558
000230 dc c5 ae 3d e4 20 b8 3d 90 ca 50 3e fc 03 27 3e
       0.085338324 0.089906484 0.20389771 0.16310114
000240 c0 ab dc bc 29 ae 43 be 6e 18 3d 3e 60 e8 b6 bc
       -0.026937366 -0.19109406 0.1846635 -0.022327602
000250 04 e8 48 be 4c f1 3a bd da 57 4e 3e 9a e7 00 be
       -0.19619757 -0.045640275 0.201507 -0.12588349
000260 a8 52 d8 bc c4 35 bd 3d 58 a7 49 3e 50 e2 27 bd
       -0.026406601 0.092387706 0.19692743 -0.040987313
000270 c4 6e 49 be d2 75 ea bd 64 0b b5 bd 80 bd f4 3c
       -0.1967116 -0.11448254 -0.08840063 0.029875517
000280 b8 69 3e be e0 18 77 3e 9c dd 93 3d 2c 04 4a be
       -0.18595016 0.24130583 0.07220003 -0.19728154
000290 2c 25 19 3e 20 6f 62 3c 8a 30 89 3e c0 54 b4 bb
       0.14955586 0.01382044 0.26794845 -0.005503267
0002a0 00 b0 6c bb 98 53 87 be be a2 67 be 00 10 7b 3a
       -0.0036115646 -0.26430964 -0.22620675 0.00095772743
0002b0 8c fc 6d 3e bd 6b 2d be 98 a0 5b 3d a2 42 41 be
       0.2324087 -0.1693563 0.05361995 -0.18873075
0002c0 27 5a 59 be 1e 3b ce bd ae be 3b be 53 07 68 be
       -0.21225797 -0.100698695 -0.18334457 -0.22659044
0002d0 b2 27 ac bd 24 44 19 bd 8c 9e 0b 3e c2 ee 00 3e
       -0.08406009 -0.0374185 0.136347 0.12591079
0002e0 00 95 6b bb 22 1a 80 bd 54 4f 6e bd 10 58 66 be
       -0.0035946965 -0.062549844 -0.058181122 -0.2249453
0002f0 0a f1 42 3e 44 8d 7b 3e 9f e9 80 be 9c e1 85 be
       0.19037262 0.24565607 -0.2517824 -0.2614869
000300 23 61 83 be 30 eb 34 bd 00 5a 2d ba a6 1c 37 be
       -0.25660047 -0.044169605 -0.00066128373 -0.17882022
000310 1c f6 1a 3e f0 be 93 3c 98 f2 0d be 6c a5 87 be
       0.15132946 0.018035382 -0.13862073 -0.26493394
000320 94 60 5a 3e 38 12 8b 3e 80 4e d0 3c f3 4e 06 be
       0.21325904 0.27162337 0.025428057 -0.13116054
000330 4a 4a 32 3e 9e 45 25 3e 18 f7 20 bd 82 7d 83 3e
       0.17411152 0.16139838 -0.039298147 0.25681692
000340 64 39 4f be 3c 8c 00 bd 28 a8 6d 3e bf 84 2d be
       -0.20236737 -0.031383738 0.23208678 -0.1694517
000350 b4 01 ad bd dc 74 ee bd ec 99 e5 bd 20 05 77 3e
       -0.084475905 -0.11643383 -0.11210999 0.24123049
000360 14 d9 2c 3e 99 f2 7e be 10 85 2b be 80 34 6a bb
       0.16879684 -0.24897231 -0.16749978 -0.003573686
000370 8c 5d b6 bd cc 6f 1a be b9 d3 89 be b8 d3 4e 3e
       -0.089045614 -0.1508171 -0.26919344 0.20197952
000380 e2 02 1d 3e 34 bd a2 3d 34 71 7c bd 4f ea 87 be
       0.15333131 0.07946244 -0.061631396 -0.2654595
000390 f0 73 8c bc 18 6b d6 3d 46 c6 a2 bd d0 bd 5c 3e
       -0.017145127 0.10469645 -0.07947974 0.21556783
0003a0 c0 2e 80 3d 00 a4 5e bc 0c a9 dd 3d 68 24 12 3e
       0.06258917 -0.013588905 0.10823259 0.142717
0003b0 0a b0 4d be 74 8f aa 3d 63 e2 7e be 14 0d 6b bd
       -0.20086685 0.08328143 -0.24891047 -0.05738552
0003c0 9c d7 b5 bd 48 20 56 3e f3 0e 87 be 98 44 c7 3d
       -0.08879015 0.20910752 -0.26378593 0.0972988
0003d0 6b 89 7f be 98 24 f3 3d f4 5b 89 3d 92 b3 dc bd
       -0.24954765 0.11872214 0.06706992 -0.10776438
0003e0 f4 a9 a5 3d 82 93 86 3e f4 ba 2a 3e 0c e3 7f be
       0.080890566 0.26284415 0.1667288 -0.24988955
0003f0 64 5a 91 bd a4 60 7e 3e d0 8b 2d 3d f0 4a 0a 3d
       -0.07097319 0.24841553 0.042369664 0.033762872

bias f4 [64]
000000 00 00 00 00 00 00 00 00 00 00 00 00 00 00 00 00
       0.0 0.0 0.0 0.0
000010 00 00 00 00 00 00 00 00 00 00 00 00 00 00 00 00
       0.0 0.0 0.0 0.0
000020 00 00 00 00 00 00 00 00 00 00 00 00 00 00 00 00
       0.0 0.0 0.0 0.0
000030 00 00 00 00 00 00 00 00 00 00 00 00 00 00 00 00
       0.0 0.0 0.0 0.0
000040 00 00 00 00 00 00 00 00 00 00 00 00 00 00 00 00
       0.0 0.0 0.0 0.0
000050 00 00 00 00 00 00 00 00 00 00 00 00 00 00 00 00
       0.0 0.0 0.0 0.0
000060 00 00 00 00 00 00 00 00 00 00 00 00 00 00 00 00
       0.0 0.0 0.0 0.0
000070 00 00 00 00 00 00 00 00 00 00 00 00 00 00 00 00
       0.0 0.0 0.0 0.0
000080 00 00 00 00 00 00 00 00 00 00 00 00 00 00 00 00
       0.0 0.0 0.0 0.0
000090 00 00 00 00 00 00 00 00 00 00 00 00 00 00 00 00
       0.0 0.0 0.0 0.0
0000a0 00 00 00 00 00 00 00 00 00 00 00 00 00 00 00 00
       0.0 0.0 0.0 0.0
0000b0 00 00 00 00 00 00 00 00 00 00 00 00 00 00 00 00
       0.0 0.0 0.0 0.0
0000c0 00 00 00 00 00 00 00 00 00 00 00 00 00 00 00 00
       0.0 0.0 0.0 0.0
0000d0 00 00 00 00 00 00 00 00 00 00 00 00 00 00 00 00
       0.0 0.0 0.0 0.0
0000e0 00 00 00 00 00 00 00 00 00 00 00 00 00 00 00 00
       0.0 0.0 0.0 0.0
0000f0 00 00 00 00 00 00 00 00 00 00 00 00 00 00 00 00
       0.0 0.0 0.0 0.0

weight f4 [64, 64]
000000 24 ed 0e be 1f 60 1f 3e 79 66 34 3e 29 23 17 3e
       -0.1395765 0.15564011 0.17617215 0.14759506
000010 80 67 80 bb dc fe 59 3d d0 6c 34 3c 78 6a a8 bd
       -0.003918588 0.05322157 0.011012271 -0.08223432
000020 46 86 5b be 80 c9 d8 bc 3a c6 bf 3d 65 52 01 3e
       -0.2143794 -0.02646327 0.093639806 0.12629087
000030 14 eb 52 3d 0a 32 ca 3d b1 c6 0a 3e 24 71 2b bd
       0.05149372 0.098728254 0.13552357 -0.041855946
000040 73 c5 10 3e c0 03 95 bb 88 08 9d bd 64 2f ac bd
       0.14137821 -0.004547566 -0.07667643 -0.084074765
000050 7b 35 01 be 41 c1 2a be c4 26 4b 3d 51 dd 4c 3e
       -0.12618057 -0.16675283 0.049597517 0.200063
000060 20 22 fc 3c 38 b6 ef 3c 10 57 a6 bd ca c9 ae bd
       0.03077799 0.029261693 -0.081220746 -0.08534582
000070 3e f9 8a bd 9e 7a 99 3d 4c e4 18 3d 22 ea a2 bd
       -0.067858204 0.074940905 0.037327096 -0.079548135
000080 1c c4 2d 3d b0 f0 1a bd c0 9f 71 bc 99 33 1d 3e
       0.042423353 -0.037827194 -0.01474756 0.15351714
000090 1a c4 b8 bd 7d dc 4e 3e 29 87 f2 bd 51 66 4d 3e
       -0.090217784 0.20201297 -0.11842186 0.20058562
0000a0 92 93 a6 3d 3e 0a b2 3d 58 db 4a bd 64 ac 71 bd
       0.081336156 0.0869336 -0.04952559 -0.059002295
0000b0 de 2a 22 be 8b 9b 54 be b7 39 1b 3e f5 0e 57 3e
       -0.15836665 -0.2076246 0.15158735 0.210018
0000c0 24 4d 7e 3d 5a 70 ad bd 54 c4 42 3d 40 d9 04 bc
       0.062085286 -0.08468695 0.047550514 -0.008108437
0000d0 51 a4 3f be 80 8e 31 be 12 f3 99 3d b6 76 81 bd
       -0.18715025 -0.17339516 0.07517065 -0.063214704
0000e0 cc ec 52 bd 69 ab 05 be 72 8c c3 3d 35 c1 df bd
       -0.05149536 -0.13053669 0.09548272 -0.10925523
0000f0 ea 9a 8d bd 22 3c ed 3d ff 20 55 3e 89 a5 45 3e
       -0.06914313 0.11583735 0.20813368 0.19301428
000100 2e 8c ae 3d e0 03 fc 3b 99 a0 26 3e 5d 04 44 3e
       0.08522831 0.0076908916 0.162722 0.1914229
000110 32 10 c7 3d da 57 82 3d 34 d7 55 3d b8 7a b4 3c
       0.09719886 0.063644126 0.052207187 0.022031173
000120 0b 55 12 3e cc db 7a 3d 37 ed 3a be 40 f6 02 be
       0.14290254 0.06124477 -0.18254553 -0.1278925
000130 79 55 49 be b0 42 85 bd 00 4d 35 3c 88 fd bb bd
       -0.19661511 -0.0650686 0.0110657215 -0.091792166
000140 f2 e4 4b be d6 2f 10 be 92 b5 bc 3d e0 df 79 bc
       -0.19911554 -0.14080748 0.09214319 -0.01525113
000150 a0 ac 14 bd 5c 93 0f 3d c8 52 3b bd d1 a4 f1 bd
       -0.03629744 0.035052642 -0.045733243 -0.11799014
000160 3c 79 cb bd 5e bb b4 bd 00 85 4f be b5 75 4c be
       -0.09935233 -0.088248 -0.20265579 -0.19966777
000170 a6 ff a7 bd 7a 64 a6 3d d5 d0 58 3e e0 04 c0 bb
       -0.08203058 0.08124633 0.21173413 -0.005859956
000180 79 66 17 3e 3a 9d 92 3d ea 92 30 be 6d d4 dd bd
       0.14785184 0.07158895 -0.17243543 -0.108315326
000190 f0 52 73 bd d2 ba 36 be 68 66 f8 3c 7c a5 52 3d
       -0.059405267 -0.17844704 0.030322269 0.05142735
0001a0 29 d3 2c be 78 a5 3a bd 2b 8e 43 be 69 c6 5c 3e
       -0.16877426 -0.04556796 -0.19097202 0.21560062
0001b0 3d 21 03 3e 26 43 a7 bd 15 98 3e 3e ff c3 0a be
       0.12805648 -0.081671044 0.18612702 -0.13551329
0001c0 17 84 3a 3e 00 a4 aa bd ca 8d 81 3d 89 0f 1a 3e
       0.18214451 -0.08332062 0.06325872 0.15044989
0001d0 06 70 ce 3d b4 e6 56 3d b0 85 cc bc 80 e7 d0 3a
       0.100799605 0.05246611 -0.02496609 0.0015938133
0001e0 4f 4d 3d 3e fe e7 90 bd 08 dd 8f bd d8 a6 e2 3c
       0.18486522 -0.07075499 -0.0702458 0.027667448
0001f0 59 24 d7 bd f2 a3 a7 bd c0 97 8a 3c b1 bc 26 3e
       -0.1050498 -0.08185567 0.016918063 0.16282918
000200 46 92 90 3d d6 fd 08 be 97 de 05 3e 44 4c a3 bd
       0.070591494 -0.1337808 0.13073193 -0.07973531
000210 5c b3 64 3d 30 e4 50 3c 3f 56 1e 3e 68 13 46 bd
       0.055835113 0.012749717 0.15462588 -0.04835835
000220 3a 2a b4 bd fc a8 30 bd 00 f5 00 3b da 3f d1 bd
       -0.087971166 -0.043129906 0.0019677281 -0.10217257
000230 f7 60 18 3e 00 ba ed bd 24 4a 0c 3d 9a 37 2a be
       0.14880739 -0.11607742 0.034250394 -0.16622773
000240 b0 3a dc bc a0 14 3f bd 7e 63 b1 bd 4e cb e7 3d
       -0.026883453 -0.04665053 -0.08661555 0.11318074
000250 e2 f5 45 be 80 07 ba 3c e0 ea a5 bc 0e 9a e6 bd
       -0.19332078 0.022708654 -0.020253599 -0.11259852
000260 11 69 2c 3e 5d 2d 0b 3e 26 fe 85 3d 00 03 8a 3b
       0.16836955 0.13591523 0.065426156 0.0042117834
000270 c6 c2 f5 3d c7 c4 c2 bd 1e 68 34 be e7 be 54 3e
       0.12000041 -0.095101885 -0.17617843 0.20775948
000280 30 fc a5 bd cc e2 31 3d a0 ae 8d 3b eb a4 3a 3e
       -0.081047416 0.04342918 0.0043237954 0.18226974
000290 09 86 5c 3e fb 28 15 be 40 54 17 bb f0 bc 33 be
       0.21535505 -0.14566414 -0.0023090988 -0.17552543
0002a0 3d 31 0f 3e 91 ad 53 3e 52 7d a9 bd 4c ba 20 3d
       0.13983627 0.20671679 -0.08275856 0.039240167
0002b0 20 42 43 bd c0 d6 56 bd e7 09 30 3e 2c fd 4d be
       -0.047670484 -0.052450895 0.17191277 -0.20116109
0002c0 e0 de f2 bc 00 c0 68 ba db 88 43 be 1e 53 b6 3d
       -0.02964729 -0.0008878708 -0.19095175 0.08902572
0002d0 6d d8 13 3e 76 1c 30 be ba 8f ab 3d 20 81 65 bc
       0.14438029 -0.17198357 0.08377023 -0.014007837
0002e0 ed b5 4f 3e f5 ec 50 be 05 39 3c 3e cc b9 a4 bd
       0.20284243 -0.20402892 0.18381126 -0.080432504
0002f0 0f e4 3a 3e c5 2e e2 bd 44 34 16 3d 74 df 4e 3d
       0.1825106 -0.11044077 0.036670938 0.05050607
000300 83 8a 09 3e ea d3 cf 3d f6 cd f7 3d 80 ad 3a bd
       0.13431744 0.10147841 0.12099831 -0.04557562
000310 7e 67 2f be 00 c2 24 3b 85 38 4a 3e 09 c6 3f 3e
       -0.17129323 0.0025140047 0.19748123 0.18727888
000320 b6 72 02 be 01 83 18 3e 8e 6c c7 3d 28 78 20 bd
       -0.12739071 0.14893724 0.09737502 -0.03917709
000330 e2 07 f2 3d f0 ef 13 bc d8 f6 d7 3c ac 45 11 be
       0.1181791 -0.0090293735 0.026362821 -0.14186734
000340 08 6b da bc 35 07 59 3e 2d 58 09 3e 62 2c 33 be
       -0.026662365 0.21194156 0.13412543 -0.174974
000350 10 e9 48 bc ad 38 0d 3e 1c c0 bd bd 80 27 de bc
       -0.012262598 0.13791151 -0.092651576 -0.027118444
000360 a2 2b dd 3d 85 54 3a 3e 6f 25 49 3e c8 29 20 be
       0.10799338 0.18196304 0.19643186 -0.15640938
000370 56 e7 50 be c1 ad 1c 3e 50 60 89 bc ef 29 48 3e
       -0.20400748 0.15300657 -0.016769558 0.19547246
000380 b1 5d 1d 3e 84 1a ad bd 64 0f 7e 3d 82 2d 95 3d
       0.15367772 -0.08452323 0.062026396 0.072840706
000390 14 b4 9e bd 2f 31 47 3e 10 89 91 3c e4 eb 90 bd
       -0.07749191 0.19452356 0.017765552 -0.070762426
0003a0 d2 80 4a be f3 6e 31 3e 1a d7 5b be 7b bf 28 3e
       -0.19775704 0.1732748 -0.21468773 0.16479294
0003b0 62 4b 9b bd 44 59 22 bd 50 97 ef 3c ad ef 59 3e
       -0.075827375 -0.03963591 0.029246956 0.21282835
0003c0 e6 f1 11 be 2e 74 1d be f3 42 05 3e 04 5b d7 bd
       -0.14252433 -0.1537635 0.1301382 -0.10515407
0003d0 ae 2c a3 bd 69 2a 00 3e 3e cc b7 bd bf 0d 04 3e
       -0.07967506 0.12516178 -0.08974503 0.12895869
0003e0 22 ef ac bd b9 88 2a 3e a9 db 5c 3e c0 52 f5 3c
       -0.084440485 0.16653718 0.21568169 0.029946685
0003f0 2e 9d 93 bd ea 6c f9 3d fc de 77 3d 00 5d 76 3a
       -0.07207714 0.12178977 0.06051539 0.00093980134

bias f4 [64]
000000 00 00 00 00 00 00 00 00 00 00 00 00 00 00 00 00
       0.0 0.0 0.0 0.0
000010 00 00 00 00 00 00 00 00 00 00 00 00 00 00 00 00
       0.0 0.0 0.0 0.0
000020 00 00 00 00 00 00 00 00 00 00 00 00 00 00 00 00
       0.0 0.0 0.0 0.0
000030 00 00 00 00 00 00 00 00 00 00 00 00 00 00 00 00
       0.0 0.0 0.0 0.0
000040 00 00 00 00 00 00 00 00 00 00 00 00 00 00 00 00
       0.0 0.0 0.0 0.0
000050 00 00 00 00 00 00 00 00 00 00 00 00 00 00 00 00
       0.0 0.0 0.0 0.0
000060 00 00 00 00 00 00 00 00 00 00 00 00 00 00 00 00
       0.0 0.0 0.0 0.0
000070 00 00 00 00 00 00 00 00 00 00 00 00 00 00 00 00
       0.0 0.0 0.0 0.0
000080 00 00 00 00 00 00 00 00 00 00 00 00 00 00 00 00
       0.0 0.0 0.0 0.0
000090 00 00 00 00 00 00 00 00 00 00 00 00 00 00 00 00
       0.0 0.0 0.0 0.0
0000a0 00 00 00 00 00 00 00 00 00 00 00 00 00 00 00 00
       0.0 0.0 0.0 0.0
0000b0 00 00 00 00 00 00 00 00 00 00 00 00 00 00 00 00
       0.0 0.0 0.0 0.0
0000c0 00 00 00 00 00 00 00 00 00 00 00 00 00 00 00 00
       0.0 0.0 0.0 0.0
0000d0 00 00 00 00 00 00 00 00 00 00 00 00 00 00 00 00
       0.0 0.0 0.0 0.0
0000e0 00 00 00 00 00 00 00 00 00 00 00 00 00 00 00 00
       0.0 0.0 0.0 0.0
0000f0 00 00 00 00 00 00 00 00 00 00 00 00 00 00 00 00
       0.0 0.0 0.0 0.0

weight f4 [64, 16]
000000 d0 e2 8a bd cc f4 7a 3e d2 94 76 3e d8 8a 6a 3e
       -0.06781542 0.24507445 0.24080208 0.22904527
000010 22 6d 12 be 8e 3b 36 be 66 eb 6f be b0 1d 47 bd
       -0.14299443 -0.17796156 -0.23429641 -0.048612297
000020 ae b7 26 be 94 86 ee 3d 30 b4 b8 3c 68 09 4b 3e
       -0.16281006 0.116467625 0.022546858 0.19827807
000030 c0 7b 6d be 74 1f 57 be 48 8e 3e bd a0 f1 86 3d
       -0.23191738 -0.21008092 -0.04652241 0.06589055
000040 8e 89 57 3e c0 39 ab bc fe c5 5a 3e 38 9b 8a bd
       0.21048567 -0.02090156 0.2136459 -0.06767887
000050 b8 8d 10 bd 58 25 c5 bd 20 9a d9 bd c8 f5 c1 bd
       -0.035291404 -0.096262634 -0.106251 -0.09470707
000060 b6 4a 5d be 20 67 fb bc f0 a3 ac bd 48 be 25 be
       -0.21610531 -0.030688822 -0.08429706 -0.16185868
000070 5c e3 3d be 96 de 76 be 70 76 65 bd ee 6b 50 be
       -0.18543762 -0.24108347 -0.056021154 -0.20353672
000080 16 2b 66 3e 2c 70 89 bd 0c a0 89 3d 44 89 37 be
       0.22477373 -0.06710848 0.0671998 -0.17923456
000090 10 f9 d0 3c 62 99 70 be 9c 7f e6 3d 8c cc f1 3d
       0.025509387 -0.23496011 0.11254808 0.11806592
0000a0 d0 c5 78 be 58 43 df 3d 58 5e 02 3d 3e e3 1f be
       -0.2429421 0.10901517 0.031828254 -0.1561403
0000b0 74 69 ea bd c8 a0 7b 3e 7c 28 05 be 10 fc 5f 3e
       -0.11445895 0.24573052 -0.13003725 0.21873498
0000c0 e0 11 4e 3d d0 94 ea 3d de da 00 be a8 6e a6 3d
       0.050310016 0.11454165 -0.12583491 0.08126575
0000d0 10 7d 5c 3d fa 2b 4c 3e 84 27 7d be 20 26 ba bd
       0.053830206 0.1993865 -0.24722105 -0.09089303
0000e0 80 fd cb 3b 3e be 37 be 40 83 2e 3d 9a 0f 25 3e
       0.006225288 -0.17943665 0.04260564 0.16119233
0000f0 06 46 1a 3e 48 01 04 be a0 f6 ce 3d 04 46 3a be
       0.15065774 -0.12891114 0.10105634 -0.18190771
000100 58 23 1f 3e 9e 3c 51 be 64 16 68 be 6c b0 b1 3d
       0.15540826 -0.2043328 -0.22664791 0.08676228
000110 70 55 c1 bc 78 6a 7c 3d 96 34 6e 3e e6 3c 75 3e
       -0.02360031 0.061624974 0.23262247 0.23949012
000120 88 58 10 3e 3e 39 68 be b8 a8 1d bd 00 e0 df 3c
       0.14096272 -0.22678086 -0.03849098 0.027328491
000130 b4 46 79 be be 16 56 3e b2 fd 27 3e c0 83 ec bd
       -0.24343377 0.20907113 0.16405371 -0.11548567
000140 88 b4 55 bd 0c 7e 14 be 68 ed c4 3d b8 9a 30 3d
       -0.05217412 -0.14501208 0.09615594 0.0431163
000150 78 81 b1 bd 5a dd 08 3e b8 5a 5d bd 50 ef db 3c
       -0.08667272 0.13365689 -0.054041594 0.026847512
000160 4c 3f 31 3e 9c 8e f0 bd a0 1b 6c be 7a 2b 0a 3e
       0.17309302 -0.117459506 -0.23057413 0.13493147
000170 b6 4d 27 be 58 8e c1 3d ac ed 99 bd 06 d9 2b 3e
       -0.16338238 0.09450978 -0.075160354 0.16782007
000180 00 ca 1b bc 18 1f e9 bd 70 98 34 be 86 06 2c 3e
       -0.00950861 -0.11382884 -0.17636275 0.16799363
000190 74 2e 20 be 58 23 91 3d 02 c7 43 3e a0 a3 4d be
       -0.1564272 0.070868194 0.19118884 -0.20081949
0001a0 52 dc 56 be 70 ee d0 3c 28 fc c8 bd 06 ed 3b be
       -0.20982483 0.02550432 -0.0981372 -0.18352136
0001b0 bc 47 29 3e 24 26 6e be 88 71 e9 bd 24 a5 54 be
       0.1653127 -0.23256737 -0.113986075 -0.20766121
0001c0 9c 52 87 3d f0 a2 b0 3c c8 90 d5 3d a8 5c d6 3d
       0.06607553 0.02156207 0.104280055 0.104668915
0001d0 00 9f 81 ba 28 c1 99 bd ae 5d 62 3e 00 56 2a 3c
       -0.0009889305 -0.07507545 0.22106048 0.010396481
0001e0 d8 cb 73 3d 4e cc 52 be 62 e7 7a be 20 15 fa bd
       0.059520572 -0.20585749 -0.24502328 -0.122110605
0001f0 24 25 06 be 30 57 94 3d c8 91 e3 bd a0 e1 d5 3c
       -0.13100106 0.07243192 -0.1111179 0.026108563
000200 86 3b 6d 3e c4 08 97 bd fc ce 82 3d 80 ee 48 3b
       0.23167238 -0.07374719 0.063871354 0.0030659735
000210 d6 77 28 3e 74 ee df 3d a0 4b 3e bc 84 05 0c 3e
       0.16451964 0.10934153 -0.01161471 0.13673979
000220 60 65 50 bc 80 14 2e bd ac 92 c7 bd 1e d7 50 be
       -0.012719482 -0.04250002 -0.09744772 -0.2039456
000230 f0 d7 55 3e 1e 3a 22 be 14 0c 74 be 14 a6 e5 bd
       0.20883155 -0.15842482 -0.23832732 -0.112133175
000240 80 d9 4e 3d 50 db b9 bc d8 14 e9 3d a8 ab 12 3e
       0.050500393 -0.022687584 0.11380929 0.14323294
000250 6e 8e 16 3e 7a ca 56 be 78 bd d0 3d ac 70 fd 3d
       0.1470277 -0.20975676 0.10192388 0.12375006
000260 c4 04 0e be 00 b9 9e 3a b0 7a 19 3d a8 67 00 3d
       -0.13869005 0.0012109578 0.03747052 0.031348854
000270 68 5f 09 3e a6 58 59 3e 9c e1 75 3e b0 44 65 3d
       0.13415301 0.21225223 0.24011844 0.05597371
000280 36 b5 15 3e 3c e8 da 3d b8 7e 0a be 28 37 2b 3e
       0.14619908 0.106888264 -0.13524902 0.16720259
000290 20 83 91 bc 40 f2 d0 3d 1e e8 29 be 48 d0 4c 3e
       -0.01776272 0.102024555 -0.16592452 0.20001328
0002a0 60 8a 64 3d 90 0c 68 3d c6 bc 63 be 40 fd b1 bc
       0.055796027 0.056652606 -0.2223998 -0.021727204
0002b0 bc 09 b3 bd 9a b1 71 3e 86 5f 6a be e8 b2 7c bd
       -0.08742091 0.23602906 -0.22888002 -0.061694056
0002c0 74 f2 fd bd 5a 94 39 be cc ec c4 3d dc bf 30 be
       -0.1239976 -0.18122998 0.09615478 -0.17260689
0002d0 b0 05 f2 3d b0 d2 f5 3c f4 87 07 be 80 10 e9 bc
       0.11817491 0.03000769 -0.13235456 -0.02845025
0002e0 b0 9a b1 3c 30 2e e4 bd 7a 7b 24 be 0c 44 10 be
       0.021680206 -0.11141622 -0.16062728 -0.14088458
0002f0 08 11 77 3d 7e 92 61 be 88 32 21 3e 6c 20 28 3e
       0.060318977 -0.22028539 0.15741932 0.16418618
000300 12 66 6b 3e be 97 58 3e ae df 0f be 60 2b de bd
       0.22988155 0.21151635 -0.14050171 -0.10848117
000310 98 5f 3b 3e d0 78 04 bd 78 7c 3c be 1c 42 f5 bd
       0.18298185 -0.03234178 -0.18406856 -0.119755
000320 12 b3 33 3e ee 93 11 be 94 15 b4 3d 4c c0 55 be
       0.17548779 -0.14216587 0.08793178 -0.20874137
000330 76 0b 29 3e fc d1 8c 3d 64 95 30 3e 80 b2 0b 3c
       0.16508278 0.06875989 0.17244488 0.008526444
000340 0e f3 01 3e 80 c9 51 3e 28 2d 01 bd 20 79 41 be
       0.12690374 0.20487022 -0.031537205 -0.18893862
000350 34 a2 34 be 9a 18 16 3e 58 3f 23 be c6 17 60 be
       -0.1764 0.14657822 -0.15942132 -0.21884069
000360 58 c2 58 be 40 bf e2 bd 40 f8 3d 3d e0 f6 67 be
       -0.21167886 -0.11071634 0.046379328 -0.22652769
000370 f0 3e ed bd 72 18 75 3e 40 2a 2e bd 0c c7 ac bd
       -0.1158427 0.23935106 -0.04252076 -0.08436403
000380 78 27 f2 3d 9a a9 52 be 88 e4 47 be 38 69 12 3d
       0.11823934 -0.2057251 -0.19520772 0.035744876
000390 94 da a1 3d ac 46 7c be 7c ec 60 3e b8 5d c7 bd
       0.079030186 -0.24636334 0.21965212 -0.09734672
0003a0 18 6f 1c 3d 62 fa 35 3e 80 fa c3 3d 30 fa 9e 3d
       0.038191885 0.17771295 0.095692635 0.07762563
0003b0 66 91 69 be 12 d8 6e be 80 69 be 3d a0 37 18 3c
       -0.22809371 -0.23324612 0.09297466 0.009290606
0003c0 b8 31 1d 3e 54 1c 00 3e a0 60 4d be 18 79 3c 3d
       0.15350997 0.12510806 -0.20056391 0.04601392
0003d0 0e d5 48 be 2a 83 0d be 24 b4 8c 3d 40 f4 64 bc
       -0.19612524 -0.13819566 0.068702966 -0.013974249
0003e0 f6 7d 23 be e0 9c ad 3d 00 a7 31 3e 74 97 7b be
       -0.15966019 0.08477187 0.17348862 -0.24569494
0003f0 72 1f 70 3e b4 51 0d 3e c0 9e ac bc 4a 3f 78 be
       0.23449495 0.13800699 -0.021071792 -0.24242893

bias f4 [64]
000000 a8 14 b9 3d 20 ba 12 3d c4 fb 19 3e d0 19 9c bd
       0.09037143 0.035822034 0.15037447 -0.07622111
000010 12 93 5a 3e 50 22 42 3d a2 a7 21 3e c2 cb 45 3e
       0.21345165 0.047396004 0.15786603 0.19316009
000020 40 73 5b bc 50 42 71 3e d2 57 07 3e 9e ae 1c be
       -0.013394177 0.23560452 0.13217095 -0.15300986
000030 60 cd 93 3c e8 10 f9 bd d0 c9 41 3d b4 97 1a be
       0.018042266 -0.12161428 0.047311604 -0.15096933
000040 f8 3b be bd d4 c4 d2 bd f4 0f 78 be 60 10 6b 3e
       -0.09288782 -0.10291448 -0.24224836 0.22955465
000050 9c 47 af bd 80 dd 9c bd 00 27 aa bb c0 2b 90 3b
       -0.0855858 -0.07659435 -0.0051926374 0.0043997467
000060 64 03 57 be 04 70 8e 3d 30 98 1f be 04 51 4b be
       -0.20997387 0.06954959 -0.15585399 -0.19855124
000070 74 ac 19 be c2 a0 47 be 06 8d 48 3e 4c c4 c3 3d
       -0.15007192 -0.19494918 0.19585046 0.09558925
000080 e2 53 60 3e 18 03 4e be ba 3a 4b be 7c 1c cb 3d
       0.21906999 -0.20118368 -0.19846621 0.09917542
000090 94 af ef bd d0 ea 9c bd 00 68 16 be 8a 66 57 be
       -0.11703411 -0.076619744 -0.1468811 -0.2103521
0000a0 92 cf 16 be bc fb 20 be de 28 03 3e c0 38 d8 bb
       -0.1472762 -0.15721029 0.12808558 -0.006598562
0000b0 6a fa 1f 3e 46 90 5e 3e f0 0f 29 3e 94 5c 50 be
       0.15622869 0.21734723 0.16509986 -0.20347816
0000c0 b0 0d 16 3e 9e cc 11 3e 1c e3 e7 bd 70 ad 57 bd
       0.14653659 0.14238212 -0.113226146 -0.052655637
0000d0 00 19 ac 3d c0 2b d1 bc 02 93 1c be 70 76 35 bd
       0.08403206 -0.025533557 -0.15290454 -0.044302404
0000e0 ac 47 8d bd ae 9d 1c 3e a8 09 df 3d d8 08 20 3e
       -0.06898436 0.15294525 0.10890514 0.15628374
0000f0 a0 51 2d bc 38 0d 69 be 68 f1 79 3e c0 58 fd 3b
       -0.010578543 -0.22758949 0.24408495 0.007731527

weight f4 [64, 64]
000000 8c 5a 5a 3d 7a 2f 91 bd a0 db ca bb cc aa 08 3d
       0.05330901 -0.070891336 -0.006190732 0.03336601
000010 30 3d 50 bd 5e c4 8d bd c4 e6 0f 3d 9e 8b cd 3d
       -0.050839603 -0.0692222 0.035132185 0.100363955
000020 50 bd c7 3d 44 4e 2e 3d 50 61 2e 3c 04 21 66 3d
       0.09752905 0.04255511 0.010643318 0.05618383
000030 b0 ef 1f bd c6 6c c5 3d fe 12 87 3d aa 41 ff bd
       -0.039046943 0.096398875 0.06595419 -0.12463696
000040 cc 6c e9 3d c0 c5 c0 3b b4 8f c1 bd 90 eb 43 bd
       0.113977045 0.0058829486 -0.09451237 -0.04783207
000050 6a a6 f8 3d 4e bb d5 bd 50 19 00 3d c0 33 2c bd
       0.12141116 -0.10436116 0.03127414 -0.04204154
000060 62 45 d2 bd ec d2 45 3d 3c 25 95 3d e4 a9 fb 3d
       -0.1026714 0.048296854 0.072824925 0.122882634
000070 70 d7 d0 bd 78 67 7a 3d 9a 2f b6 3d 00 74 49 bb
       -0.101973414 0.06113383 0.08895798 -0.0030739307
000080 c8 80 c5 3d 02 b4 e9 3d 1a 52 cf bd 5e a1 80 3d
       0.09643704 0.11411287 -0.101230815 0.06280778
000090 68 07 f4 3c d0 b8 67 3c 74 b8 bc 3d 00 ec db 3b
       0.029788688 0.014143184 0.09214869 0.006711483
0000a0 78 ae 3e bd 72 9f da 3d cc 56 94 3d e4 5e 78 3d
       -0.046553105 0.10674943 0.07243118 0.06063737
0000b0 48 d8 09 bd 9c 88 d5 bd 68 c1 8e bc f8 cf bf bc
       -0.033653527 -0.10426447 -0.017426208 -0.023414597
0000c0 70 e8 cd bc b0 a5 82 bd a4 d1 b7 3d 30 5c aa bc
       -0.025135249 -0.06379259 0.08975533 -0.020795912
0000d0 38 c6 fa bd 5e 23 a4 bd e2 42 fd bd 06 ab 8d 3d
       -0.122448385 -0.08014558 -0.123662725 0.06917386
0000e0 50 f7 6a bc c8 7b 82 bd f4 54 c4 bd 34 84 79 3d
       -0.01434119 -0.06371266 -0.09586516 0.060917094
0000f0 14 42 dd bd ea d7 e8 bd e0 89 38 bc 08 db 98 3d
       -0.10803619 -0.11369307 -0.011263341 0.07463652
000100 60 25 ca bd 0e bc a5 bd a4 11 25 3d c2 af f8 bd
       -0.0987041 -0.08092509 0.040300027 -0.12142898
000110 92 18 aa 3d 54 d9 88 3d 40 dd 79 3d 88 e8 d9 3d
       0.08305468 0.06682077 0.061002016 0.10640055
000120 58 66 de 3d 5c 7a 6c bd 10 9d 90 3d 60 cb 8b 3d
       0.10859364 -0.05773388 0.07061207 0.068259
000130 80 ce 67 3d 74 c0 0b bd 3a df 8c bd de 32 a6 bd
       0.056593418 -0.034119084 -0.068785146 -0.08115171
000140 40 c0 db 3c c0 70 60 bb 00 57 cf 3b 38 48 e5 3d
       0.02682507 -0.0034246892 0.00632751 0.11195415
000150 08 01 d0 bd 88 e3 ec 3c 68 4e b8 3c 00 8d b5 bb
       -0.10156447 0.02891709 0.022498325 -0.00554049
000160 1c 79 a9 3d 0a 33 a6 3d 12 5b ac bd 48 15 b6 3c
       0.08275053 0.08115204 -0.08415808 0.022226945
000170 c8 0e 9a bd 64 8d 8d bd 48 e1 d5 bd 0c e4 3e 3d
       -0.075223505 -0.06911734 -0.104433596 0.0466042
000180 f0 7a 51 bc 1e 9a a2 bd 40 52 cb bc 00 05 17 bc
       -0.012785658 -0.07939552 -0.024819493 -0.009217501
000190 ac 72 41 3d cc d9 d9 3d 62 fa a9 bd c0 f6 ff bb
       0.0472285 0.106372446 -0.0829971 -0.0078113973
0001a0 1a ca f7 3d 04 cf a8 3d c8 ff 6b 3d 3c 16 1a bd
       0.12099095 0.0824261 0.05761698 -0.03761886
0001b0 e8 81 b2 3c 90 36 0b 3c 80 9f f0 3a ca 10 a7 3d
       0.02179046 0.008496895 0.0018358082 0.08157499
0001c0 50 69 2e bd b8 64 fc bc a2 6d b2 3d e4 ee 01 3d
       -0.042580903 -0.030809745 0.08712317 0.031721964
0001d0 04 0e f3 bd 68 cf c8 bc 72 b4 ac 3d de 20 9b 3d
       -0.11867908 -0.024512962 0.08432855 0.07574628
0001e0 b0 d7 aa 3d 90 05 96 bd 36 48 bf bd 30 87 23 3d
       0.083419204 -0.0732528 -0.09339945 0.039923847
0001f0 86 75 c4 3d ec 46 d1 3d 34 b7 44 3d c0 1e 97 3d
       0.09592728 0.102186054 0.04802628 0.07378912
000200 4a b7 b0 bd 98 21 f6 3c c0 0d 53 bc 80 fc b6 ba
       -0.086287096 0.030045316 -0.012881696 -0.0013960749
000210 ac cc 71 3d 3e c7 bf bd b0 8e 45 3c f0 61 33 bd
       0.05903308 -0.09364174 0.012057945 -0.043794572
000220 ea 7a 80 3d 78 93 e4 bd c4 38 8d bd a8 db b6 bd
       0.06273444 -0.1116094 -0.06895593 -0.08928615
000230 10 b5 bf 3d d2 51 9f 3d 3e 48 d4 3d 40 ba fc 3d
       0.09360707 0.07779278 0.103653416 0.12340212
000240 f4 f9 1b 3d 10 92 82 3c 74 08 0f 3d 88 43 a4 3c
       0.03808017 0.015938789 0.03492017 0.020051733
000250 b0 8c 74 3c c8 37 c1 bd 04 f5 c4 3d 4e 5c ad bd
       0.014926121 -0.094344676 0.096170455 -0.08464871
000260 70 95 b2 3d f0 e3 6a 3d 74 bc 04 3d 20 ce 3f 3d
       0.08719909 0.057346284 0.032406285 0.046827435
000270 c8 bc e0 3c fc 39 7b bd 86 1f 88 bd fc 1b 82 bd
       0.027433768 -0.061334595 -0.066466376 -0.06352994
000280 a6 1c 9a bd 0c 49 69 3d 80 61 18 3c 00 a7 a8 ba
       -0.075249955 0.05695443 0.00930059 -0.0012867153
000290 30 12 09 3d cc 75 ec 3d 50 ad 1e bc 78 d5 75 bd
       0.03346461 0.115459055 -0.009684876 -0.060018033
0002a0 94 ad b9 bd ac 83 d3 3d f0 34 e2 bd 04 da 79 3d
       -0.090663105 0.10327849 -0.11045253 0.06099893
0002b0 78 0b e0 3d ea bd 88 3d 00 d8 7c ba a8 fa 84 bc
       0.109396875 0.06676848 -0.00096452236 -0.016232803
0002c0 7e 34 a2 3d c4 1f 88 bd ac ff 34 3d 48 3f 1e bd
       0.07920168 -0.06646684 0.04418914 -0.03863457
0002d0 02 e1 86 3d 08 b5 e2 bc 5e d8 aa bd d0 82 43 bd
       0.065858856 -0.027674213 -0.0834205 -0.047732174
0002e0 da 8c 96 3d 10 d9 3a 3d 8e bf b4 bd 2e 77 a6 bd
       0.07351084 0.045617163 -0.08825599 -0.081282005
0002f0 a8 26 d2 bc 70 ab 43 bc 04 f4 0f bd 6e 1e ac 3d
       -0.025653198 -0.011942729 -0.03514482 0.084042415
000300 a0 2a 0e 3c 08 ca 08 bd 00 05 eb bb 84 72 6a 3d
       0.008677155 -0.033395797 -0.007172227 0.057238117
000310 38 88 b3 bd c6 8d fb bd 74 a7 cd bd f8 1b 61 3d
       -0.08766216 -0.122829005 -0.10041705 0.054958314
000320 50 5c 5e 3c 16 f9 e4 bd 6c 3c d1 3d 84 1e 89 3d
       0.013571814 -0.11180322 0.10216603 0.066952735
000330 e8 dc ee bd 04 4c 9d 3d e0 fc 9e bb 80 13 2c 3c
       -0.11663228 0.076805145 -0.0048519224 0.010502696
000340 fa 30 d2 3d 2e fb c5 3d a0 b1 df 3c ec ac 74 bd
       0.10263248 0.09667049 0.027306378 -0.059735224
000350 54 86 c0 3d 76 d1 d4 3d 38 2a 97 bc a0 01 cc bd
       0.09400621 0.10391514 -0.018452749 -0.099612474
000360 52 d6 ef 3d d4 54 5d bd 20 f0 98 bd 3a b4 f1 bd
       0.117108 -0.054035977 -0.07467675 -0.118019536
000370 04 c7 4e 3d 28 a8 44 3d 68 62 5c bd 3e 15 f8 bd
       0.050482765 0.04801193 -0.053804785 -0.121134266
000380 b2 37 b3 3d 20 52 f9 3b a8 44 e3 3d d0 79 3f bc
       0.087508574 0.007608667 0.110970795 -0.011686757
000390 ce 04 e7 3d 34 f1 01 bd 4c a7 6d bd 56 a4 95 3d
       0.11280213 -0.03172417 -0.058020875 0.07306735
0003a0 a8 88 ff 3c 68 dd e5 3d a0 eb 19 3c 46 f0 c3 bd
       0.031193092 0.112238705 0.009394556 -0.09567313
0003b0 1e 63 b5 bd b0 f0 e5 bc 10 78 99 bc 08 6d 8c bd
       -0.08856796 -0.02806887 -0.018734008 -0.068567336
0003c0 f6 26 d9 3d c6 bb 8b bd 70 50 42 3c c2 4c 92 3d
       0.10603134 -0.06822924 0.011859998 0.07143547
0003d0 c0 99 d2 3c c0 6d d1 3b 20 95 47 3d 1c c7 84 bd
       0.02570808 0.006391257 0.0487262 -0.064832896
0003e0 da 85 fd bd 9c f7 16 3d d0 5d bd bd dc b5 db bd
       -0.12379046 0.036857232 -0.09246409 -0.10728046
0003f0 f8 59 bb bd 94 36 cf 3d 64 ca ab bd fe 5e c7 3d
       -0.091480196 0.10117832 -0.08388212 0.09734915

bias f4 [64]
000000 b8 58 44 bd e0 5c 9d bc 18 79 15 3d 5a 7f cb 3d
       -0.04793617 -0.019209325 0.036492437 0.099364
000010 88 6a 55 3d 58 05 ec 3d 30 d2 27 3d 12 21 83 3d
       0.05210355 0.11524457 0.040971935 0.06402792
000020 08 12 de 3c 8a 65 d3 3d 8e 3e c8 3d c6 81 9b 3d
       0.027108207 0.103221014 0.09777556 0.07593112
000030 d0 ed d8 bd 50 55 63 bc 14 73 2d bd 90 f2 99 bc
       -0.10592234 -0.013875321 -0.042346075 -0.01879242
000040 4e 48 b6 3d f4 03 a9 bd a6 72 85 bd a8 a5 4f bd
       0.0890051 -0.08252707 -0.06516008 -0.05069509
000050 20 4d 10 3c a6 3d 8e bd a8 a2 cc 3c e8 f4 d8 bd
       0.0088074505 -0.06945352 0.024979904 -0.10593587
000060 08 06 83 bd 28 e4 98 3d 00 86 b0 3d 18 02 20 bd
       -0.06397635 0.07465392 0.086193085 -0.039064497
000070 40 f2 da 3b 80 50 8b bb 8a 3c b5 bd 00 9f e5 bc
       0.0066817105 -0.0042515397 -0.088494375 -0.028029919
000080 06 22 97 3d 20 9d 89 3b 04 8c f5 3d 4c 21 d1 bd
       0.07379536 0.004199639 0.119895965 -0.10211429
000090 9a 75 b5 bd 30 40 da bd 3c 0a a2 bd d8 d8 d6 3c
       -0.08860321 -0.10656774 -0.07912108 0.026226446
0000a0 8a 40 ab 3d 76 94 d1 bd 94 54 c3 bd 20 a3 3d bd
       0.08361919 -0.10233395 -0.09537616 -0.046298146
0000b0 d6 da 97 3d ac 37 87 3d 30 10 50 bc c0 83 e9 3d
       0.074147865 0.066024154 -0.012699172 0.114020824
0000c0 3c 52 3a 3d fc 9f f0 3d 00 2e b0 39 78 88 9e bd
       0.04548858 0.117492646 0.0003360361 -0.07740873
0000d0 00 d4 b6 3a a4 2b 22 3d 30 2d 48 3d 00 a4 f6 b9
       0.0013948679 0.0395924 0.04887122 -0.00047042966
0000e0 60 e9 8b 3b 20 4a c2 3c e0 c4 e1 bc f0 b4 fa 3c
       0.004269764 0.023716986 -0.027559698 0.030603856
0000f0 4a f1 a2 bd 28 55 e1 bc 3a 06 8a 3d 44 80 1c 3d
       -0.079561785 -0.027506426 0.06739469 0.03820826

weight f4 [64, 128]
000000 82 96 4a 3d e4 1d 71 bd 32 1e d5 bc 93 6e 3b bd
       0.04945994 -0.058866397 -0.026015375 -0.04575975
000010 0e d1 8c bd 1e a3 14 bd 80 44 b9 bb 60 2e d4 bb
       -0.068758115 -0.036288373 -0.005653918 -0.006475255
000020 50 f7 b2 bb 03 b0 64 bd 90 7f c4 bb 84 ff bf 3c
       -0.005461611 -0.05583192 -0.005996652 0.023437269
000030 67 02 82 3d 12 07 5b 3d b0 47 97 bd 9a a5 66 bd
       0.063481145 0.05347354 -0.0738672 -0.056310274
000040 db c9 8e 3d 22 c2 75 3d 52 f7 48 3d 69 b9 3a bd
       0.069720946 0.059999593 0.049063988 -0.045586977
000050 01 a8 98 3d 9c dd af bd d2 f5 8f bd 30 9c 01 3c
       0.07453919 -0.085871905 -0.070293084 0.007910773
000060 de 60 28 3d 4e 9f aa bd 60 2c 55 3c 40 58 ae ba
       0.041108005 -0.08331166 0.013011068 -0.0013301447
000070 00 a0 3e bc d2 c8 8d bd 9a 8e 2d bd a0 f5 87 3b
       -0.011634827 -0.06923069 -0.042372324 0.004149154
000080 80 2c ad 3c 82 11 63 3d 2f 42 00 bd a9 57 ab 3d
       0.021139383 0.05543662 -0.031313118 0.08366329
000090 82 51 08 3d 2a f9 75 bd 8f 37 b4 bd 8e 69 73 3d
       0.033280857 -0.060052074 -0.087996595 0.059426837
0000a0 10 e4 da 3b d0 57 11 bc 06 b5 ef bc da 35 2a 3d
       0.006680019 -0.008871034 -0.029261123 0.041555263
0000b0 0e 47 02 bd e6 6f 84 bd ee 6c 7b 3d f3 38 1b bd
       -0.031806044 -0.064666554 0.06138318 -0.037896108
0000c0 62 75 50 3d e6 f7 78 bd b4 8f 91 bc 5f 63 46 bd
       0.050893195 -0.06078329 -0.017768718 -0.04843461
0000d0 e0 8e 76 3b 40 44 2b bc 68 05 d8 3c 59 68 8c bd
       0.0037621781 -0.010453284 0.026369765 -0.0685584
0000e0 57 a8 9f bd df f6 8f 3d 48 9a 8a bd f8 27 f4 3c
       -0.0779578 0.07029509 -0.06767708 0.029804215
0000f0 4f 36 9d bd c8 19 8d 3c 40 7f f6 ba 20 08 32 bd
       -0.07676374 0.017224208 -0.0018806234 -0.04346478
000100 80 90 ee ba 90 cc 31 3c 80 19 22 3b 6b f2 88 3d
       -0.0018201023 0.010851994 0.0024734437 0.066868626
000110 c9 5f 4f bd aa f0 23 3d 43 b8 a6 3d 55 05 82 bd
       -0.050628457 0.040024437 0.08140614 -0.06348673
000120 99 c8 8d bd 84 b8 f4 3c b0 85 00 bd 80 a3 02 bb
       -0.069230266 0.02987314 -0.031377494 -0.001993388
000130 fd db a8 bd f6 24 5d 3d 10 39 bf bb 70 10 b2 3b
       -0.082450844 0.053990327 -0.00583566 0.0054340884
000140 44 b2 fb bc b0 5b fb 3c 80 fc bd ba 67 49 10 bd
       -0.030724652 0.030683368 -0.0014494807 -0.035226252
000150 04 de b3 3c 05 6d 06 bd 3c 5c 06 3d 5a 60 ad bd
       0.021956451 -0.032818813 0.032802805 -0.08465643
000160 79 15 0c bd 32 0f 78 bd 8a 07 1a 3d 9e 3a 7e bd
       -0.034200165 -0.060561366 0.037604846 -0.06206762
000170 59 41 8c 3d 00 4e b0 3c 9a e2 5d 3d e2 29 6c bd
       0.068484016 0.021521568 0.054171182 -0.05765713
000180 56 0c 93 bd 18 a5 6d bc fd ec 46 bd fa 41 f5 bc
       -0.07180087 -0.014504693 -0.048565853 -0.029938687
000190 6b cc 94 3d d6 80 41 3d 52 ef d5 bc ee d7 5b 3d
       0.07265552 0.04724201 -0.026115093 0.053672723
0001a0 cf 7f 72 bd 75 60 52 bd aa 5c 20 3d 82 4d 1c 3d
       -0.05920392 -0.05136152 0.03915087 0.038159855
0001b0 f4 5b d1 bc 44 0f 77 bd 10 59 62 3c 4f a0 ae 3d
       -0.025556542 -0.060317293 0.0138151795 0.0852667
0001c0 1f 29 b2 3d 19 82 94 3d 4c bf 87 bd 72 fd 6f 3d
       0.086992495 0.07251377 -0.06628284 0.058591314
0001d0 90 99 84 3c 36 ed 92 bd e0 04 ba 3b 6b d0 ae bd
       0.016186506 -0.07174151 0.0056768507 -0.08535846
0001e0 18 71 9b 3c 38 13 47 bd ae 97 73 bd 10 ee 8c 3b
       0.018974826 -0.048602313 -0.059470825 0.00430084
0001f0 26 2f 74 3d 22 35 4b 3d 16 0b 60 bd b6 ed 4d 3d
       0.059615277 0.04961122 -0.054698072 0.050275527
000200 a0 b4 06 3d 6a af 71 bd b0 c3 ba bc 18 84 ad bc
       0.0328871 -0.05900518 -0.02279839 -0.021181151
000210 19 21 93 bd 43 2d a5 bd f4 d8 75 bd cf 8f a4 3d
       -0.07184047 -0.080652736 -0.060021356 0.08035242
000220 bc 63 c0 bc 88 02 0b 3c 2d 51 96 bd c8 18 79 bc
       -0.023485057 0.00848449 -0.07339702 -0.015203662
000230 f6 c7 08 3d 40 c5 ea ba c0 9a e3 bb c0 51 9a ba
       0.033393823 -0.0017911568 -0.006945938 -0.0011773631
000240 ba 6d 73 3d 22 0b 7f bd 4d 8f a2 bd a0 5b ae bd
       0.059430815 -0.062266476 -0.07937489 -0.0851357
000250 24 36 13 3d bb ab 49 bd 03 58 1e bd f0 8a 3f bc
       0.035940304 -0.04923604 -0.038658153 -0.01169084
000260 6a 3e 54 3d 80 61 49 3a d0 ba 8d 3c c4 63 cb bc
       0.051817335 0.000768207 0.017300993 -0.024827845
000270 ea 08 45 3d da 9c 34 bd cb 88 8b 3d f7 00 95 3d
       0.048104204 -0.044094898 0.068132006 0.07275575
000280 2a d6 a2 bd 50 45 e5 bc f0 80 2e bc ec f2 42 bd
       -0.07951005 -0.027987152 -0.010650858 -0.04759495
000290 70 83 9b 3b d2 a7 ed bc a7 dc 95 3d 40 23 e5 bb
       0.004745893 -0.029010687 0.07317477 -0.0069927275
0002a0 69 60 4a bd 60 c6 33 bd a8 2d a9 bd 9f 82 5e bd
       -0.04940835 -0.043890357 -0.08260661 -0.05432379
0002b0 a8 94 8c 3c 4c b8 da 3c 94 09 1c bd 80 bf 6b 3a
       0.017160729 0.026699208 -0.038095072 0.00089930743
0002c0 8a a7 35 3d 20 6c 3f 3c e8 24 23 3c 74 80 6d bd
       0.04434923 0.011683494 0.00995753 -0.05798383
0002d0 75 30 aa 3d f8 c3 d5 bc 70 ee ee 3b f8 56 32 bc
       0.08310024 -0.026094422 0.0072916076 -0.010884993
0002e0 3a 49 1d 3d 0e f0 95 bd 44 c8 a4 3c 12 82 8c bd
       0.038399912 -0.073211774 0.020115025 -0.068607464
0002f0 85 e1 8e 3d 6e b4 0e bd 60 d0 93 3c 60 ab bf 3b
       0.06976608 -0.03484004 0.018043697 0.005849287
000300 60 e6 0f bd b0 45 41 bc 8b 2f ac 3d 31 0f 37 bd
       -0.035131812 -0.0117964 0.084075056 -0.044692222
000310 28 37 bc bc 12 a4 6e 3d 22 8c 54 3d d0 54 c8 3c
       -0.02297552 0.05826194 0.051891454 0.024454504
000320 fa 65 9e bd 40 98 69 bc 75 5c b2 bd 17 ec 32 bd
       -0.07734294 -0.014257491 -0.08709041 -0.043682184
000330 e8 d0 1a bc e0 d6 08 bd 68 a0 14 3d 00 50 68 3a
       -0.009449221 -0.033408046 0.036285788 0.00088620186
000340 b0 7f 8e 3c 0c 44 d4 3c 60 cf ae 3c 49 78 b1 bd
       0.01739487 0.025911354 0.021339118 -0.08665521
000350 c0 31 92 3c 4b f2 94 3d e8 66 f4 3c 3d f2 81 3d
       0.017845988 0.07272776 0.029834226 0.063450314
000360 0f 07 44 bd 28 cd b7 bc 44 28 a5 bd 38 52 a5 bd
       -0.047858294 -0.022436693 -0.08064321 -0.080723226
000370 70 77 88 bd 06 03 39 3d 6b f0 54 bd f8 0d f3 3c
       -0.06663406 0.0451689 -0.051987093 0.029669747
000380 fa bb 7a 3d dc 4d 01 3d e9 be 17 bd 82 48 67 3d
       0.061214425 0.031568393 -0.0370473 0.056465633
000390 f8 c6 04 3d ac 36 a4 3c c0 a5 b5 bc 0b ce 8f 3d
       0.032416314 0.0200456 -0.022173762 0.070217215
0003a0 86 f7 2e 3d 70 8b 7e bc 92 f7 26 3d ce 40 71 bd
       0.042716525 -0.015536174 0.040763445 -0.058899693
0003b0 50 cd fa bb 0e 49 96 bd 95 89 a1 bd b5 72 93 3d
       -0.0076538697 -0.07338153 -0.0788757 0.07199613
0003c0 c2 72 40 3d d8 bf f5 bc c6 b9 49 bd 24 ed 0a bd
       0.04698444 -0.029998705 -0.049249433 -0.03391756
0003d0 78 14 ac bc 90 5d 76 bc 17 01 9b 3d fd 45 ad 3d
       -0.021005854 -0.0150369555 0.07568567 0.08460615
0003e0 96 0b 3d 3d c8 8a 4a bd 02 47 ff bc 40 97 34 3c
       0.046153627 -0.04944876 -0.031161789 0.011022389
0003f0 f1 a0 57 bd 23 f1 a1 3d 87 96 56 bd 33 8d a7 3d
       -0.05264372 0.07907321 -0.052389648 0.081812285

bias f4 [64]
000000 c8 4b cf 3c a5 8c 9a bd 80 22 af 3c ed 71 82 3d
       0.02530469 -0.07546357 0.021378756 0.06369386
000010 78 a7 f6 3c 76 4b b2 bd 34 a4 ec bc 8a 7c 39 bd
       0.030109152 -0.08705799 -0.028886892 -0.045284785
000020 24 ec a2 bd 0c 9b 96 bd d2 03 6a 3d ac f0 67 bd
       -0.079551965 -0.073537916 0.05713255 -0.056626007
000030 d9 38 5a bd c5 8d 1d bd 08 09 1a bc 92 3a 57 3d
       -0.05327687 -0.03846528 -0.009401567 0.05254609
000040 60 56 b2 bd 40 e5 21 bd 10 1f 6c bc 78 e9 c8 3c
       -0.08707881 -0.03952527 -0.014411703 0.02452539
000050 d5 e1 48 bd 88 dc c4 bc b4 ab 42 bd b4 87 a2 bc
       -0.049043495 -0.024030939 -0.04752703 -0.019840099
000060 22 29 3b 3d 2b 14 19 bd 80 9f 42 bc 80 27 6d bd
       0.045693524 -0.03737275 -0.011878848 -0.057899
000070 6c 41 ca 3c b6 84 68 bd 88 d4 a7 3c e8 37 b4 bd
       0.024689399 -0.056767188 0.020487085 -0.08799726
000080 ce 5f 0d 3d 6a 52 02 3d 38 4f 89 bd d8 58 38 bc
       0.034515195 0.031816877 -0.06704563 -0.011251651
000090 9c 36 59 bd f8 e3 2c bd ce bb 27 3d 16 bb 4e bd
       -0.053030595 -0.042209595 0.04095059 -0.050471388
0000a0 82 65 4c 3d 22 fb 36 3d 1d 4d a2 3d 32 7a 07 bd
       0.049901493 0.044673093 0.079248644 -0.03307552
0000b0 9c 8b a0 bd 9e 5a 6a 3d f4 5f aa bc c9 84 0e bd
       -0.078391284 0.057215326 -0.020797707 -0.034794603
0000c0 27 91 2b bd a1 57 a8 3d 04 d9 8c bd 34 44 9d 3c
       -0.041886475 0.08219839 -0.0687733 0.01919756
0000d0 30 e6 8f 3c 99 25 0d bd d6 f9 4d 3d 12 77 51 3d
       0.017565817 -0.034459684 0.05028709 0.051138945
0000e0 be 8d 73 3d b4 1b c3 3c b4 60 c0 3c 88 15 cd 3c
       0.059461348 0.02381692 0.023483612 0.025034681
0000f0 bc d0 e6 bc 26 a3 90 bd 00 9b 29 3b 38 e0 05 3c
       -0.028175704 -0.07062368 0.002587974 0.008171134
